…
_SQAVy","executionInfo":{"elapsed":92,"status":"ok","timestamp":1772633144776,"user":{"displayName":"Daria Lukyanenko","userId":"17896998785669715202"},"user_tz":-180},"outputId":"0688e603-6391-4400-86d3-2daf5680784b"},"source":["summary(model, (N_CHANNELS, SIZE_H, SIZE_W))"],"execution_count":26,"outputs":[{"output_type":"stream","name":"stdout","text":["----------------------------------------------------------------\n","        Layer (type)               Output Shape         Param #\n","================================================================\n","           Flatten-1                [-1, 27648]               0\n","            Linear-2                  [-1, 256]       7,078,144\n","              ReLU-3                  [-1, 256]               0\n","           Dropout-4                  [-1, 256]               0\n","            Linear-5                  [-1, 128]          32,896\n","              ReLU-6                  [-1, 128]               0\n","           Dropout-7                  [-1, 128]               0\n","            Linear-8                    [-1, 2]             258\n","           Sigmoid-9                    [-1, 2]               0\n","================================================================\n","Total params: 7,111,298\n","Trainable params: 7,111,298\n","Non-trainable params: 0\n","----------------------------------------------------------------\n","Input size (MB): 0.11\n","Forward/backward pass size (MB): 0.22\n","Params size (MB): 27.13\n","Estimated Total Size (MB): 27.45\n","------------------------------------
…
2tZFy","executionInfo":{"elapsed":964,"status":"ok","timestamp":1744634448606,"user":{"displayName":"Daria Lukyanenko","userId":"17896998785669715202"},"user_tz":-180},"outputId":"13700e87-e923-4497-8b1a-091a48888215"},"source":["summary(model_cnn,(N_CHANNELS, SIZE_H, SIZE_W))"],"execution_count":null,"outputs":[{"output_type":"stream","name":"stdout","text":["----------------------------------------------------------------\n","        Layer (type)               Output Shape         Param #\n","================================================================\n","            Conv2d-1           [-1, 32, 96, 96]             896\n","         MaxPool2d-2           [-1, 32, 48, 48]               0\n","              ReLU-3           [-1, 32, 48, 48]               0\n","         Dropout2d-4           [-1, 32, 48, 48]               0\n","       BatchNorm2d-5           [-1, 32, 48, 48]              64\n","            Conv2d-6           [-1, 64, 48, 48]          18,496\n","         MaxPool2d-7           [-1, 64, 24, 24]               0\n","              ReLU-8           [-1, 64, 24, 24]               0\n","         Dropout2d-9           [-1, 64, 24, 24]               0\n","      BatchNorm2d-10           [-1, 64, 24, 24]             128\n","           Conv2d-11          [-1, 128, 24, 24]          73,856\n","        MaxPool2d-12          [-1, 128, 12, 12]               0\n","             ReLU-13          [-1, 128, 12, 12]               0\n","        Dropout2d-14          [-1, 128, 12, 12]               0\n","      BatchNorm2d-15          [-1, 128, 12, 12]             256\n","           Conv2d-16          [-1, 128, 12, 12]         147,584\n","        MaxPool2d-17            [-1, 128, 6, 6]               0\n","             ReLU-18            [-1, 128, 6, 6]               0\n","          Dropout-19            [-1, 128, 6, 6]               0\n","          Flatten-20                 [-1, 4608]               0\n","      BatchNorm1d-21                 [-1, 4608]           9,216\n","           Linear-22                  [-1, 256]       1,179,904\n","      BatchNorm1d-23                  [-1, 256]             512\n","           Linear-24                    [-1, 2]             514\n","          Sigmoid-25                    [-1, 2]               0\n","================================================================\n","Total params: 1,431,426\n","Trainable params: 1,431,426\n","Non-trainable params: 0\n","----------------------------------------------------------------\n","Input size (MB): 0.11\n","Forward/backward pass size (MB): 8.20\n","Params size (MB): 5.46\n","Estimated Total Size (MB): 13.76\n","-------------------------------------
…
":{"colab":{"base_uri":"https://localhost:8080/"},"id":"q20HyPAkwM8Z","executionInfo":{"status":"ok","timestamp":1772634393932,"user_tz":-180,"elapsed":608,"user":{"displayName":"Daria Lukyanenko","userId":"17896998785669715202"}},"outputId":"72cbf496-8f31-41e5-f2f7-7a6d48c107ec"},"execution_count":57,"outputs":[{"output_type":"stream","name":"stdout","text":["----------------------------------------------------------------\n","        Layer (type)               Output Shape         Param #\n","================================================================\n","            Conv2d-1           [-1, 32, 96, 96]             896\n","         MaxPool2d-2           [-1, 32, 48, 48]               0\n","              ReLU-3           [-1, 32, 48, 48]               0\n","         Dropout2d-4           [-1, 32, 48, 48]               0\n","       BatchNorm2d-5           [-1, 32, 48, 48]              64\n","            Conv2d-6           [-1, 64, 48, 48]          18,496\n","         MaxPool2d-7           [-1, 64, 24, 24]               0\n","              ReLU-8           [-1, 64, 24, 24]               0\n","         Dropout2d-9           [-1, 64, 24, 24]               0\n","      BatchNorm2d-10           [-1, 64, 24, 24]             128\n","           Conv2d-11          [-1, 128, 24, 24]          73,856\n","        MaxPool2d-12          [-1, 128, 12, 12]               0\n","             ReLU-13          [-1, 128, 12, 12]               0\n","        Dropout2d-14          [-1, 128, 12, 12]               0\n","      BatchNorm2d-15          [-1, 128, 12, 12]             256\n","           Conv2d-16          [-1, 128, 12, 12]         147,584\n","        MaxPool2d-17            [-1, 128, 6, 6]               0\n","             ReLU-18            [-1, 128, 6, 6]               0\n","        Dropout2d-19            [-1, 128, 6, 6]               0\n","      BatchNorm2d-20            [-1, 128, 6, 6]             256\n","          Flatten-21                 [-1, 4608]               0\n","      BatchNorm1d-22                 [-1, 4608]           9,216\n","           Linear-23                  [-1, 256]       1,179,904\n","             ReLU-24                  [-1, 256]               0\n","          Dropout-25                  [-1, 256]               0\n","      BatchNorm1d-26                  [-1, 256]             512\n","           Linear-27                    [-1, 2]             514\n","          Sigmoid-28                    [-1, 2]               0\n","================================================================\n","Total params: 1,431,682\n","Trainable params: 1,431,682\n","Non-trainable params: 0\n","----------------------------------------------------------------\n","Input size (MB): 0.11\n","Forward/backward pass size (MB): 8.23\n","Params size (MB): 5.46\n","Estimated Total Size (MB): 13.80\n","-------------------------------------
…
